FILE.pt (torch, 5034 bytes, 6 tensors)

fc1.weight f4 [16, 3]
000000 01 44 04 be 53 1b 38 be 3a 38 bf 3e d6 5f de be
       -0.12916566 -0.17979173 0.37347585 -0.43432492
000010 5f 22 0b bf 60 a0 69 3d ae f1 0a be d0 ca 5a 3d
       -0.5434932 0.05703771 -0.13568756 0.053416073
000020 60 08 16 bd 34 bb 0e bf 2f 7b 0d bf 4a f0 1d be
       -0.03662908 -0.557544 -0.5526609 -0.15423694
000030 ee 32 ae be c2 f0 b5 be f6 3a 2c be 1d c0 a6 be
       -0.3402323 -0.35535246 -0.16819367 -0.32568446
000040 3a c5 13 bf 19 80 d4 be 00 27 ed 3d b8 8c 9b 3d
       -0.5772282 -0.4150398 0.11579704 0.07595199
000050 33 80 ef be ca 48 ee be aa 03 18 be d3 dd 0b bf
       -0.46777496 -0.4653991 -0.14845148 -0.5463535
000060 4b 93 16 bf 1e d4 44 3f b2 a3 bc 3d fa 68 bc be
       -0.588185 0.76886165 0.0921091 -0.3679884
000070 59 9b 43 bf 13 16 c5 3e ca 22 0e bf b6 de b8 3e
       -0.76408917 0.38493404 -0.55521834 0.36107415
000080 ce c6 94 be 09 70 96 bd 37 46 42 3f a4 92 5e 3e
       -0.29057926 -0.07345588 0.7588839 0.21735626
000090 db 5a f9 3e 2a 56 a0 3e de 39 4b bd 3e 01 7b be
       0.4870213 0.31315738 -0.049615733 -0.24512193
0000a0 2f d9 a6 be c8 c3 85 be 22 9a 91 3e 0a bd 59 be
       -0.32587573 -0.26125932 0.28437907 -0.21263519
0000b0 42 42 04 be d4 5e e8 3e e4 d8 f0 3e 2b d0 a3 be
       -0.129159 0.45384848 0.47040474 -0.31994757

fc1.bias f4 [16]
000000 71 a5 0f bf b0 92 b7 3d 76 a8 c8 3e e8 d5 0a 3f
       -0.5611182 0.08963525 0.39191025 0.54232645
000010 ac 36 1c 3e bc 7f 85 be 6d c7 d3 be c0 b7 4b 3c
       0.1525523 -0.26074016 -0.41363087 0.012433946
000020 6b fd 47 3f 35 33 19 bf 1e 04 c5 3e b1 c9 76 be
       0.7812106 -0.5984376 0.38479704 -0.24100377
000030 6d a5 f5 3e 9e 82 b2 be a2 9a c2 3e 35 f3 ba be
       0.47977772 -0.34865278 0.380086 -0.36513677

fc2.weight f4 [32, 16]
000000 40 12 41 bd 8e 20 54 be 62 90 57 be 24 7b 0b be
       -0.047136545 -0.20715544 -0.21051171 -0.13621193
000010 40 d9 20 3c fc 5b 1d be c4 14 c6 3d 60 9f 8c 3d
       0.009817421 -0.1536712 0.096719295 0.06866336
000020 3c cd fe bd 70 b3 62 be 00 35 af bd 68 f4 47 be
       -0.12441489 -0.22138762 -0.08555031 -0.19526827
000030 28 86 56 3e d4 fd b2 3d c4 bb b4 bd 4c 2c 75 be
       0.20949614 0.0873982 -0.08824876 -0.23942679
000040 38 86 4c be 48 b8 46 3e 18 91 47 bd 6c 08 e9 3d
       -0.19973075 0.19406235 -0.048722357 0.113785595
000050 46 5f 6c 3e 68 8a 7d bd a6 5e 03 3e 1a 39 21 3e
       0.23083219 -0.061899573 0.12829074 0.15744439
000060 f2 94 7c be d0 e4 08 3e ac cf 93 bd c0 60 80 3c
       -0.24666193 0.13368535 -0.07217345 0.015671134
000070 bc 3d f5 bd 90 31 da 3c 54 f2 d6 bd 60 99 0c bd
       -0.119746655 0.026634961 -0.10495439 -0.034325957
000080 1f 5b 5b 3e 12 89 1c be 60 90 53 3c 28 51 8b 3d
       0.21421479 -0.15286663 0.01291284 0.06802589
000090 0c bb ca bd 3a 71 0a be 50 ac 92 bc be 21 77 be
       -0.098989576 -0.13519755 -0.01790443 -0.24133965
0000a0 1c 83 ab 3e 16 45 56 3e 0c 7e 5f 3e da 3b 08 3e
       0.33498466 0.20924792 0.21825427 0.13304082
0000b0 0e 2f 9a be 20 79 b2 bc 7e 31 26 be a4 74 5c be
       -0.30114025 -0.021786273 -0.16229817 -0.2152887
0000c0 a8 7e 61 bd ba 55 12 be 84 e1 7e be 38 cc f3 3d
       -0.05505243 -0.14290515 -0.24890715 0.11904186
0000d0 30 bc 23 3e f4 dc e5 bd d8 27 d0 bd dc 60 6e be
       0.15989757 -0.11223784 -0.101638496 -0.23279136
0000e0 e0 a2 b6 3d c8 c2 cd 3d fc 0d c2 bd 02 b9 13 be
       0.08917785 0.10046917 -0.094753236 -0.14426044
0000f0 00 ce ba 3c 08 db 04 3e 60 bf ac bd 7c 6a 5c be
       0.022803307 0.12974179 -0.084349394 -0.21524996
000100 28 a6 7c bd 98 ad 32 be 2c ab 76 be 38 f2 29 be
       -0.061681896 -0.17449033 -0.24088734 -0.16596305
000110 bc 5c b0 3d 7a 42 67 be d8 83 a0 3d 20 64 e4 3c
       0.08611438 -0.22583953 0.07837647 0.027879775
000120 f2 1c a3 be 98 1e 8f 3e c0 19 46 3c df bf f9 3c
       -0.3185802 0.2795303 0.0120911 0.030487
000130 50 41 c9 be 64 89 8d bd 40 4f de 3b 8c 9a 8e 3d
       -0.39307642 -0.06910971 0.0067843497 0.06963071
000140 80 c6 62 bb 64 41 e9 3d e4 34 17 be a0 11 f4 bd
       -0.0034603179 0.113894254 -0.1476627 -0.11917424
000150 92 b1 23 be 80 35 16 bb d4 5b 59 3e 70 ad 06 3e
       -0.15985706 -0.0022920072 0.21226436 0.13152099
000160 8c 8b 10 3e 18 e6 49 be 30 7a 72 bd 7c 45 02 be
       0.14115733 -0.1971668 -0.05919856 -0.12721819
000170 44 7d 76 3e e2 e6 1f 3e 80 c2 f5 bc 00 84 54 3a
       0.24071223 0.15615419 -0.029999971 0.0008106828
000180 68 f8 85 bd 62 ad 65 be 28 73 21 3e 32 02 5b 3e
       -0.0654152 -0.22429422 0.15766585 0.21387556
000190 06 96 10 be a4 0b f5 3d a8 94 2a bd f6 47 6a be
       -0.1411973 0.11965111 -0.041645676 -0.22879013
0001a0 2e b9 2f be 7c 92 4f be da d7 30 3e d0 49 b5 3c
       -0.17160484 -0.20270723 0.17269841 0.022129923
0001b0 0a 41 5f be 80 25 9a bd 5c 3c 24 be 0e 02 6e be
       -0.21802154 -0.07526684 -0.1603865 -0.23242971
0001c0 cf 61 41 3e ec 41 3e be b8 71 32 3e e0 a7 49 bc
       0.18884967 -0.18579835 0.17426193 -0.012308091
0001d0 10 b7 78 be fe 7d 68 be c0 1b 40 3e 60 7d 1f bc
       -0.24288583 -0.22704312 0.18760586 -0.009734482
0001e0 b8 70 be 3d 82 3c 78 bb d4 f0 11 be 87 70 e9 bd
       0.09298843 -0.0037877862 -0.14252025 -0.11398416
0001f0 12 22 7d 3d 76 ec 07 3e 40 8b 19 3c 24 dc 34 3e
       0.06180007 0.13273796 0.009371579 0.17662102
000200 79 74 66 3e e0 b8 c7 bd a0 4a cd 3c 30 27 2d 3d
       0.22505368 -0.09752059 0.025059998 0.0422737
000210 20 70 22 bd 56 de 52 3e c0 84 31 3e e4 33 a7 3d
       -0.039657712 0.20592627 0.17335796 0.08164194
000220 dc cd 5a 3e 6a ab 91 be a4 e3 f9 3d 7c 33 79 3e
       0.21367592 -0.2845109 0.12201622 0.24336046
000230 a6 b2 0d 3e e0 5a 24 3d 1c c6 db 3d 34 3a 41 3e
       0.1383768 0.040125728 0.10731146 0.18869859
000240 76 f1 2e 3e 60 d4 9c bc 40 76 b5 bb f8 69 3f bd
       0.17084298 -0.019144237 -0.005537778 -0.04673192
000250 c0 da 00 3d 02 a8 1a 3e 14 99 89 bd 1c a2 30 3e
       0.031458616 0.15103152 -0.067186505 0.1724934
000260 aa cd 36 3e 70 b4 4d 3e 9c 79 d2 3d 6a 64 42 3d
       0.17851892 0.20088363 0.102771014 0.047459044
000270 0f 82 92 bc 20 63 13 bc 5a 1f 35 be 24 95 ea 3d
       -0.017884282 -0.008995801 -0.17687741 0.114542276
000280 c0 37 68 bc 04 db 73 be 60 92 ce bc 10 12 ed bd
       -0.014173448 -0.23814017 -0.025216281 -0.11575711
000290 b8 54 ac 3d d6 64 7a be 3c 58 dd bd 16 55 3f be
       0.08414596 -0.24452528 -0.10807845 -0.18684801
0002a0 fc a3 02 be 52 1b 40 be aa b8 54 3e 0a 41 47 be
       -0.12757868 -0.18760422 0.20773569 -0.19458404
0002b0 30 c7 52 be 24 d4 0b 3e 10 d1 ae bc 70 e4 18 bd
       -0.20583797 0.13655144 -0.021339923 -0.03732723
0002c0 c0 e9 62 3d e0 03 eb bd 70 9a 0c bd ce 59 6b be
       0.055398703 -0.114753485 -0.03432697 -0.22983477
0002d0 46 1d 61 be a8 7f bd bd 9a 0d 77 3e 06 b1 73 3e
       -0.21983823 -0.09252864 0.24126282 0.23797998
0002e0 40 0b 93 bc 1a 61 74 be 60 6a 83 bd a8 3d 49 bd
       -0.0179497 -0.23865166 -0.06416774 -0.049131066
0002f0 48 c8 e3 bd d0 98 94 bd d0 0e 1a be c4 32 92 bd
       -0.11122185 -0.07255709 -0.15044713 -0.07138589
000300 7c f7 1f 3e c0 a9 dd bd 10 91 f3 bd 50 c7 db 3c
       0.15621752 -0.10823393 -0.11892903 0.026828438
000310 68 c7 2b 3e ec 99 e2 3d 4e 1a 52 be 20 78 3c 3d
       0.16775286 0.110645145 -0.20517847 0.046012998
000320 1e 95 73 3d 59 25 00 3e f2 8d 5c 3e 67 a2 5a 3e
       0.05946838 0.12514247 0.21538523 0.21351014
000330 11 9b e9 bd 30 8c 7d 3e 9a b5 68 be 16 ec 29 be
       -0.1140653 0.24760509 -0.22725525 -0.16593966
000340 84 48 4d 3e 34 b9 d6 3d 84 9f f0 bd 34 78 2d 3e
       0.20047194 0.104845434 -0.11749175 0.16940385
000350 3c 3b 02 be 64 77 77 3e 26 1e 39 3e 00 f5 82 3a
       -0.12717909 0.24166638 0.18077907 0.0009991229
000360 40 25 21 be 38 18 56 3e fc 64 eb 3d b2 93 d4 3d
       -0.15736866 0.20907676 0.114938706 0.10379733
000370 ed 13 5b be 40 94 aa 3c 46 6b 09 be 80 1f d6 3d
       -0.2139432 0.020822644 -0.13419828 0.10455227
000380 a3 22 3c 3e 80 55 d0 bc 8a 2c 55 3e 36 ce 45 3e
       0.18372588 -0.025431395 0.20817772 0.19316944
000390 d0 59 4e bd dc b3 a9 bd dc d8 b5 3d 98 eb ca bd
       -0.05037862 -0.082862586 0.08879253 -0.09908217
0003a0 69 c4 33 be 02 53 0e 3e bc 48 50 be b3 78 89 3d
       -0.17555393 0.13898852 -0.20340246 0.06712475
0003b0 54 a1 1f bd 12 1f 17 be 00 a3 cb 3b e6 07 72 3e
       -0.038972214 -0.14757946 0.0062144995 0.23635826
0003c0 2e 8b 9f bc 9a 52 3b be 64 62 3d 3e 58 13 11 bd
       -0.019475546 -0.18293229 0.18494564 -0.03541884
0003d0 3e 0b 49 3e 40 60 1f 3d a8 ae 10 bd f8 3e 50 3e
       0.19633195 0.03891015 -0.035322815 0.2033652
0003e0 fd f3 2b be 60 ea ad bd 34 44 34 3e 52 2b b5 3d
       -0.16792293 -0.08491969 0.17604142 0.08846153
0003f0 78 bf 00 3f 30 be b9 3c a2 5e 57 3e 00 d9 7c 3e
       0.5029216 0.022673696 0.21032193 0.24692154

fc2.bias f4 [32]
000000 04 69 3b 3e 90 de e6 bd df f3 d4 bc e0 73 92 bc
       0.18301779 -0.11272919 -0.025995193 -0.01787752
000010 87 96 1b bc 8a 37 3f 3e 26 0e 0b be d8 de 68 bd
       -0.009496338 0.1867353 -0.13579616 -0.056853145
000020 bc 6f ce ba 66 c3 17 3e 3e ed 01 3e 02 2e 7b 3e
       -0.0015749852 0.14820632 0.12688157 0.2452927
000030 1c 5f fb bd a9 e6 ab bd 00 13 82 3d d0 dd cd 3d
       -0.12274 -0.08393604 0.0635128 0.10052073
000040 f2 5f 45 3e 21 56 89 be c2 19 3a 3e 31 7c 36 be
       0.19274881 -0.26823524 0.18173888 -0.17820813
000050 7f e1 da bd 58 32 97 bb d0 79 2d be 84 d7 85 3e
       -0.10687541 -0.0046141557 -0.16940999 0.26140988
000060 ed e7 e1 3d 67 3a 23 3e d8 af 73 be 57 51 04 3e
       0.110305645 0.15940247 -0.23797548 0.12921654
000070 8c c5 e5 3d 52 4e 56 bd a4 c9 81 3d 04 bf 36 3e
       0.1121932 -0.052320786 0.06337288 0.17846304

out.weight f4 [3, 32]
000000 10 45 52 3d 20 a8 61 bc 36 2b 1c 3e 39 44 03 3e
       0.051335394 -0.013772994 0.15250859 0.12818994
000010 5d d1 9e be 3f f8 32 3e d7 10 22 3e 96 ad 2b be
       -0.31019107 0.17477511 0.15826736 -0.16765437
000020 18 79 d6 bc 36 c9 37 3c 5c 58 20 bd d2 a4 32 be
       -0.026180789 0.011217406 -0.039146766 -0.17445686
000030 62 93 01 3e 59 60 3d bc 1d 87 ee bc df 44 65 be
       0.12653878 -0.011558616 -0.029117161 -0.22389553
000040 10 b5 21 be c1 0c a2 3b f0 2e 11 3c 5a b0 f3 3c
       -0.15791726 0.004945368 0.008861288 0.029747177
000050 5f 7c 43 3d 26 7e e7 3e 28 e8 62 bd 80 d5 c2 3e
       0.04772603 0.4521343 -0.055397183 0.38053513
000060 e5 8f 1c 3e 02 b6 22 be 50 de 58 3c 6e e5 84 bd
       0.15289266 -0.15889743 0.013236597 -0.06489073
000070 1c 2a 9b bd 4e 78 7a be f4 bc c5 bd d4 10 18 be
       -0.07576391 -0.24459955 -0.096551806 -0.1485017
000080 12 d2 bb 3d 71 55 2f 3e b4 83 1f 3e 15 16 29 3e
       0.09170927 0.17122437 0.15577585 0.1651233
000090 91 68 8e 3e f1 69 0b 3e f1 1b 0a 3e b0 aa 37 3e
       0.27814153 0.13614632 0.13487221 0.17936206
0000a0 b1 ca 42 be 14 1e bb bc e0 f4 20 bd ca 9a 2c be
       -0.19022633 -0.02284149 -0.03929603 -0.16855922
0000b0 f9 7b e4 bd 99 11 f1 3d 7d 2b 4e bd 81 55 9f bd
       -0.111564584 0.117709346 -0.050334442 -0.077799805
0000c0 cb d6 02 3e e9 bc 18 3e e0 64 01 3d ba 69 6e 3d
       0.1277725 0.14915814 0.031590343 0.058206297
0000d0 9e ce cb bc 66 2f 57 be c2 7d a3 3d 29 21 02 bf
       -0.024878796 -0.21014175 0.07982971 -0.5083185
0000e0 1e b2 2c 3d ae d9 0d be 8c 64 b6 bd 88 71 cc 3d
       0.042162053 -0.1385257 -0.089058965 0.09982592
0000f0 5c c8 77 bd 5b 62 be 3d 4e c3 49 bd 6e 26 d8 bd
       -0.060493812 0.092961036 -0.049258523 -0.10554205
000100 b7 e7 2f 3e a8 74 8e 3d 83 85 10 3d 00 2a ad 3b
       0.17178236 0.06955844 0.035283577 0.005284548
000110 6b 50 ad be 76 2e 98 3d 88 dc f4 3c 56 eb 48 3d
       -0.33850417 0.07430737 0.029890314 0.04905256
000120 2e b6 88 bd 45 87 62 3d 61 bb e8 bd 40 2e 4a 3d
       -0.06675373 0.055304784 -0.11363865 0.049360514
000130 47 9a c7 3b 19 03 14 be 7a 9b f8 3a ab 54 9c 3e
       0.0060913893 -0.14454307 0.0018967234 0.30533347
000140 c0 ee 7b 3d 4e 75 d3 bd d4 c2 03 bd 48 af fc bd
       0.061506987 -0.103251085 -0.032168224 -0.1233812
000150 5e ee 08 be 43 35 89 be cc 53 02 3d 6e 84 15 3e
       -0.1337218 -0.26798448 0.031818196 0.14601299
000160 a9 d8 46 3d a7 a2 5a 3d 3a 5d 8b 3d 80 cb ec 3d
       0.048546467 0.053377774 0.06804891 0.11562252
000170 f0 fd c4 bc 38 91 3d 3e 59 22 1b 3e 24 94 74 bd
       -0.024046868 0.18512428 0.15149821 -0.05971159

out.bias f4 [3]
000000 55 27 e7 bd 12 d3 ff 3d e2 9e b1 3a
       -0.11286799 0.1249143 0.0013551379
